email_spam_detection/weights.npy (npy, 4128 bytes, 1 tensors)

array f8 [500]
000000 ea 39 2a a2 42 37 90 3f 0f 6d 56 b3 23 1a 88 3f
       0.01583580126549037 0.011768607054185169
000010 8e 2c a4 13 72 5a b2 3f 2c e1 58 3b 7b 98 ab 3f
       0.07169259051822705 0.05389771556332543
000020 c7 63 ed 62 c2 ba 99 3f 94 47 69 0b ce 74 75 3f
       0.025126492775004807 0.005238346921560128
000030 ed 91 bd 57 c6 6e 8e 3f 50 9f 35 7a 13 42 63 3f
       0.014859723618152432 0.0023508434693901084
000040 ac 25 dc b3 6c a1 b2 3f 0a c0 f8 7b 29 d3 8e 3f
       0.07277564421760613 0.015051197143378676
000050 27 f1 01 e1 34 cc 99 3f 5a 43 76 39 15 40 ac 3f
       0.025193048699734846 0.055176413788223314
000060 18 df e3 a3 5a 11 9c 3f 74 1f 16 41 4d 51 96 3f
       0.02740995049768377 0.021794516656455667
000070 1b 88 97 d6 ac 81 9e 3f 20 84 38 0b a7 ff 49 bf
       0.029791546437884713 -0.0007934156078058842
000080 74 11 6d 10 a0 0f b3 3f f1 7d 26 4b f4 ce ae 3f
       0.07445717240358879 0.06017268578875335
000090 ae 7e 45 49 68 e9 8a 3f 18 5a 56 e0 64 2e 9f 3f
       0.013140501724307665 0.030450416748488335
0000a0 cf 57 8c e2 2d 81 a5 3f 21 b2 47 4b 38 36 94 3f
       0.04200118437272204 0.019738082499246915
0000b0 64 22 e5 b0 9b 3f a8 3f 76 37 51 99 ce 31 82 bf
       0.04736029180873372 -0.008884061864730102
0000c0 93 3d e7 ef 4f c6 60 3f dc 1e 59 6a b9 89 87 3f
       0.0020476876518171288 0.011493156965243605
0000d0 1f 40 6f 9e a9 1b a8 bf 08 e8 94 e7 5d e7 a3 3f
       -0.04708604868903898 0.038874563712354926
0000e0 52 08 b7 db d8 5f 77 3f 99 be 2b 69 54 ba 7b bf
       0.00570664129503669 -0.0067694947526743205
0000f0 00 31 c1 96 f9 86 fb 3e 52 5d 20 93 25 66 8e bf
       2.625202743926445e-05 -0.01484326701397146
000100 9c cf 99 1a 1c bb 63 bf 99 72 9f d6 fb 49 91 bf
       -0.0024085568336946316 -0.016883788084543914
000110 db d3 48 9c 87 a0 6b bf 78 40 82 c7 9a 91 98 3f
       -0.0033724449770269178 0.023992937495279837
000120 2c e4 a4 23 b8 43 a0 3f 71 db f6 92 d2 f1 9e bf
       0.03176665721043323 -0.030219354839313654
000130 6f 56 16 65 0d 84 77 bf 0e e5 a8 29 81 39 8c 3f
       -0.00574116928455269 0.013781556209425474
000140 19 74 df 50 f2 06 90 3f fe 61 9a 1f 1b 4b 9d 3f
       0.01565149897202298 0.028606818965814178
000150 32 28 9e 06 64 73 a0 bf a7 9b c4 26 06 4c 80 3f
       -0.03213036137374593 0.007957504327874633
000160 ec 06 61 f3 46 80 a5 3f cc 11 af d2 7c 80 97 3f
       0.04199430199561313 0.02295107875740303
000170 52 82 d6 22 7e 4b 97 3f bd 71 44 93 21 41 83 bf
       0.022748919369066485 -0.009401571566336803
000180 bd c8 dd 9e c2 a6 9a 3f e3 f9 62 50 14 0e 8c 3f
       0.026026764818603654 0.013698729232030032
000190 87 f9 b0 ba 78 ea 70 bf 4a 57 ca 89 e1 2f 8b bf
       -0.004129859541590958 -0.013274919526604773
0001a0 3b 8f f7 63 ed 7b 6f bf 23 d7 ab ee a3 83 92 3f
       -0.00384327283221522 0.018080293123566748
0001b0 c1 d3 43 33 99 8b 74 bf 0d 7a 46 be 79 d8 aa bf
       -0.005015943945399338 -0.05243282745071918
0001c0 76 c8 ca 3e df 0e 6e bf 96 4b 6e d4 dd 90 6d 3f
       -0.0036692009219559353 0.003609116803497024
0001d0 64 d6 97 55 c6 07 82 bf 57 49 8d 31 f4 9e 7d 3f
       -0.008803891646475388 0.007231668358900065
0001e0 bf db f8 0d ee 38 97 3f b4 2b 3e ce 05 56 7f 3f
       0.022678107836522573 0.007650396993890963
0001f0 9a 9e 6e fc 8e 17 a2 3f 3e cc 3e 81 e7 7f 90 bf
       0.035335987390962845 -0.016112916244036983
000200 e7 18 e3 31 cd c3 81 bf 00 95 65 2f 6a 13 82 bf
       -0.00867424305432647 -0.008826093264995283
000210 07 bc c3 5b 2d 33 71 bf 3f e9 3f 4f 9a f6 96 bf
       -0.0041991969885506525 -0.02242508991910452
000220 80 98 85 ca 90 a6 69 3f 22 39 78 18 71 e8 9e 3f
       0.0031311824752036643 0.030183570021159352
000230 2a da 47 80 37 12 8c bf 0d 64 69 a2 2e 6c 7d 3f
       -0.013706620790782404 0.007183248677926646
000240 c2 89 e4 86 3f 4f 78 3f 0c 59 bb b1 ef aa 6a 3f
       0.005934951927232425 0.003255336907254441
000250 c2 d4 f0 bf 63 79 9b 3f 7b 1e d1 4b 3a 90 7d bf
       0.0268302522565207 -0.0072176243966804955
000260 38 83 be 80 09 ac 76 3f 8b d0 56 e7 40 9f 64 3f
       0.005535161133509096 0.0025173442506574765
000270 e6 6b 82 a5 28 d7 9f bf c6 7f 1f 60 fa 24 98 3f
       -0.03109420309247559 0.02357855998695848
000280 26 f9 2e f0 5d c8 80 bf c5 8d 7c 68 6b cc 79 bf
       -0.008194669620817562 -0.006298465312088057
000290 20 79 13 3c 06 2a 8a 3f fa c9 02 50 0e ad 65 bf
       0.012775467594505374 -0.0026459960500571063
0002a0 f8 e1 84 54 44 56 5b bf c9 72 3d 89 4e 7e a2 3f
       -0.0016685168539664046 0.03611989426892632
0002b0 e3 f6 8c bb f2 76 ad 3f 15 ce 0b 12 20 9b 73 3f
       0.05754812755047369 0.004786610865938031
0002c0 b4 f2 bb cc 14 b2 72 3f 46 ee 0f 55 3e 70 a9 3f
       0.004564362763400599 0.04968447483403486
0002d0 5c ad 76 99 7c 69 9a 3f 22 4c 91 ee de e0 9e 3f
       0.02579302488963485 0.030154689131745134
0002e0 4c 5c 73 f7 7b ff a6 3f 80 e3 6c f8 e3 09 94 3f
       0.044917940098166825 0.019568979299239952
0002f0 dd 15 d6 d6 56 aa af 3f 93 6d 37 59 1f cb 8a bf
       0.06184646008027148 -0.01308273783700179
000300 55 ee c9 59 d0 ba a1 3f 68 ba 67 fb a0 8e 9c bf
       0.034628401718660363 -0.027887835831217705
000310 1c 67 a3 14 44 cd 9c 3f f2 06 67 d6 78 3d 9c 3f
       0.028126777419721014 0.02757824715241148
000320 f6 85 55 b1 a5 01 90 bf 9b 10 83 91 d6 62 7c bf
       -0.015631283711064335 -0.0069301969126095665
000330 00 b9 89 3d b7 ee a0 3f 20 e2 5c 34 e9 31 46 3f
       0.03307125688739809 0.0006773365682653555
000340 2f ce 74 2c f2 4a a3 3f 61 f7 5e f8 d2 7e a6 3f
       0.03768116753272143 0.04393634111282441
000350 13 5e be 22 1c 4d 83 bf 62 71 6b da 41 4d 83 3f
       -0.009424419222155788 0.009424700239315246
000360 20 ec 56 e3 a6 46 4c bf 5e 66 4b 46 3f af 83 3f
       -0.0008629145510704629 0.009611601193159899
000370 21 9f 9f 7d 05 c9 a2 3f 19 8f 06 fb 23 17 a4 3f
       0.036689921936895915 0.039239048378730775
000380 f6 89 d6 ba 5b 20 5f bf 11 44 8e cb 7e fc 52 bf
       -0.0018998046683483794 -0.001158832381609413
000390 00 08 65 c1 73 a2 a0 3f 88 d2 2d bf e8 6b 49 bf
       0.03248941169523789 -0.0007758032282781527
0003a0 b8 5c 34 23 88 96 42 bf 34 f2 fd ba cb e6 83 bf
       -0.0005672611936543758 -0.009717551845590845
0003b0 2d 01 0e ec d1 ce 6f 3f 08 d5 5c f1 c7 60 6e bf
       0.0038827991524500644 -0.0037082581647164305
0003c0 1f 54 b7 af a0 1c 7a 3f 38 bb b5 88 e1 bc 5c 3f
       0.006374957734313318 0.0017540171127980574
0003d0 cc a7 9d 91 3b 3b 90 bf b5 00 01 c8 98 66 63 3f
       -0.015850954783139845 0.002368257904919425
0003e0 3c b6 71 11 0a 96 93 bf ac 6c 53 26 11 de 68 bf
       -0.019127042116841006 -0.003035577292946087
0003f0 32 b9 ad c5 2e 49 7e 3f 53 b5 11 ea a5 71 7c 3f
       0.007394011215053719 0.006944320776807916
000400 be 99 5b 20 e8 61 82 3f 66 6a 2f e0 c9 34 9a bf
       0.008975804793817651 -0.02559199744050957
000410 b2 c8 4a a7 f2 f6 6b 3f 28 31 83 2e ff 1d 8e bf
       0.0034136523557544924 -0.014705651862094785
000420 f1 8c cf 4c 21 3d 90 bf e2 ac 0c 9c 4f 59 73 bf
       -0.015858192742496283 -0.004723845457913019
000430 93 12 aa 0c 15 95 71 3f 34 87 b0 16 e6 0c 4d bf
       0.004292566513531287 -0.0008865474204677649
000440 d2 a1 0d 2c 7b 45 73 bf 24 44 d8 1f a1 b0 8e bf
       -0.004704934254597908 -0.014985331329656466
000450 b1 6f cd 06 a6 b5 88 bf 37 ec 2f 31 6e 99 85 bf
       -0.012065217096896537 -0.010546551586221848
000460 10 ca d8 b3 30 3d 96 bf a8 4e a9 20 6d fc 9b 3f
       -0.021717797257403915 0.02733011733864879
000470 8e 02 61 8c e7 40 9b 3f e5 48 95 75 c2 5a 9d 3f
       0.026614778464365822 0.028666532923417604
000480 b2 26 e7 42 5e d6 9f 3f d2 99 a8 26 5e dd 86 3f
       0.03109118731825928 0.01116441302754093
000490 ca 62 29 66 b4 02 68 bf 3a af 8e 30 5c 65 92 bf
       -0.0029309771937672023 -0.017964783157068377
0004a0 32 c0 01 31 55 00 98 bf f0 ff ae c5 69 52 a8 3f
       -0.02343876945127494 0.04750376260881228
0004b0 b1 a8 5e 62 36 b0 9a 3f 0e 23 46 fa 02 fa 93 bf
       0.02606282210732819 -0.019508406186591158
0004c0 4f 4a 7d a0 33 06 9a bf ec df f3 62 05 04 87 bf
       -0.02541428248452809 -0.011238138277334962
0004d0 6b 12 a7 c5 14 27 80 bf 9a 6e 39 d8 d4 16 80 3f
       -0.007887041360740107 0.007856047485965068
0004e0 bf 5a 42 61 b9 db 8a bf db 50 45 61 69 ef a5 3f
       -0.013114403038611553 0.04284219086062687
0004f0 9b 88 57 7f f4 48 8b 3f 1a ab 6b df 2e c7 9d bf
       0.013322744499366037 -0.029080135714063628
000500 47 ca 71 4d 6c 68 a5 bf 4c 84 1e 7b 7a fb 83 bf
       -0.04181230969779342 -0.009757000810909265
000510 da 8c 2f 5f 32 88 a1 3f a1 c3 19 92 a8 06 90 3f
       0.034242223853448286 0.015650400082850905
000520 72 a4 33 a3 de d9 9b 3f cc 99 86 85 2a ed 65 bf
       0.027198294364016502 -0.002676566171618355
000530 fe c3 a2 fb 1f c9 74 3f b4 97 d2 5a 85 98 93 3f
       0.005074620183379784 0.019136508625386475
000540 fe 03 78 d4 e0 4b 72 3f c2 80 ba 78 60 2f 8e 3f
       0.004466894380585449 0.014738801655142079
000550 21 3a 0b 2a 2e 2d 80 bf 88 5d fb 32 2c 5e 55 bf
       -0.00789867463882127 -0.0013041907913498869
000560 da bd fd fa ce 3f 9a bf 10 d2 be 98 b5 0e a5 bf
       -0.025634035176549698 -0.04112784852569373
000570 78 96 4a 34 6d 19 9e 3f 1e 3d aa 2c 42 d5 94 bf
       0.029393869701968417 -0.020344766594061807
000580 e8 e2 a8 20 9f 41 82 3f 38 da 61 7b 54 5f 95 bf
       0.008914225753970453 -0.020871467619566014
000590 b8 3b 42 bf ad b9 b5 bf 51 c0 67 88 dc 1f 89 3f
       -0.0848644821110004 0.012267802155264603
0005a0 a4 9f 69 48 4f d7 80 bf 7c 5d de 40 a0 d8 91 3f
       -0.00822317065940565 0.0174279250710163
0005b0 e7 dd 6a 78 7f 27 6a bf 8d 01 96 20 5b 4c a0 3f
       -0.0031926622062561252 0.031832549789217436
0005c0 73 9d e1 57 ae 51 83 3f be f4 e8 6a a7 70 91 bf
       0.009433137947964387 -0.017031303310649497
0005d0 76 2b 3f e1 3f 4c 7a bf 6b c9 d7 3b e8 bd a2 3f
       -0.00642037346910739 0.036605126671832654
0005e0 d6 9f 48 33 f4 d9 67 bf d8 7c d4 1b 23 0e a3 bf
       -0.0029115457093844372 -0.037217232844562964
0005f0 a5 3e 81 52 45 25 9b bf ff 41 94 3f f5 a2 48 bf
       -0.02650936428136554 -0.0007518479825723844
000600 31 65 b8 6b 79 d8 73 bf 7c a2 62 cc 11 ae 99 bf
       -0.004845117855006451 -0.025078085040748807
000610 6a 70 a1 7d 5f 77 77 bf 9a 58 1f ad c9 24 a0 3f
       -0.0057290773493968526 0.03153066862403016
000620 0b 66 e8 18 40 10 87 3f a2 e4 60 48 75 fa a0 3f
       0.011261463890195797 0.03316084393049691
000630 89 56 e3 c0 d6 08 a1 3f 35 09 a1 ed 34 4a 67 bf
       0.033270560308364124 -0.0028430017237336632
000640 28 fc 8f aa c0 c9 59 bf 99 c6 c8 35 93 a0 64 3f
       -0.0015739804750862871 0.002517974395481581
000650 36 02 21 4a 73 ad 99 bf c4 fe 40 00 62 f7 89 3f
       -0.02507572307536262 0.012678876526592282
000660 ca 5d 35 0b 9e f0 a8 3f d5 c2 cb 46 76 eb 69 bf
       0.04871076475927401 -0.0031640348519136143
000670 ce 6e 41 37 d1 65 65 3f 5f e2 f2 ad 13 b5 92 bf
       0.0026120268103520866 -0.018268878452291634
000680 fa e3 9f 58 05 79 a8 3f de c1 15 12 8a 67 67 3f
       0.047798316067151306 0.0028569885914111323
000690 88 69 62 d1 13 9c 99 bf de 8f e2 4b a7 ff 6a bf
       -0.025009450583277665 -0.0032957332142178183
0006a0 19 91 7d bb 7e 98 8f bf ff 37 dc e6 34 22 73 3f
       -0.015427579972034299 0.004671293876311821
0006b0 53 b4 88 a3 35 b1 91 3f ae f4 01 cb 09 6c 96 bf
       0.017277563196490608 -0.021896508231738103
0006c0 56 85 cc 30 ad cb a7 3f 20 e7 59 39 95 f0 47 bf
       0.04647580357255758 -0.0007305840142201904
0006d0 ec e8 a9 a5 b3 b1 47 3f a8 2a 5e 1f eb 2f 77 bf
       0.0007230879958364501 -0.005660932967553357
0006e0 36 15 e3 4c 7b 68 90 bf a2 58 35 67 f2 d7 aa bf
       -0.016023565833866736 -0.052428794001273774
0006f0 f6 56 82 5a 48 13 a4 3f be cf 8b 0a 74 c4 a7 3f
       0.03920961479995626 0.0464206946252541
000700 c4 9d 6f c3 7b 2e 7f bf c7 c8 34 b7 f0 db 6e bf
       -0.007612689448229518 -0.003766985080482763
000710 e0 ff 22 5c 35 5c 92 bf 12 aa ad fe 96 11 97 3f
       -0.017929872273043546 0.022528037351927273
000720 fd 56 a5 41 64 cc 98 bf 98 70 de b9 76 8e 94 bf
       -0.02421719217939876 -0.020074706167733852
000730 97 55 bb 80 3d 6a 79 bf 03 45 49 65 3d 78 6f bf
       -0.006204834218541142 -0.0038415145047926437
000740 b2 2d 4c 36 a7 5d 76 bf 16 e2 94 56 04 a5 82 bf
       -0.005460408375039293 -0.009103807346591924
000750 7c 90 5f e8 aa 0e 9d 3f fc 1c 68 53 22 9b 80 3f
       0.028376264985027863 0.008108394785280464
000760 17 e3 cb 81 d0 c6 70 3f 85 d5 5d 2b e3 24 a9 bf
       0.00409585426381722 -0.049109553378836636
000770 4c 17 75 a4 7c 5f 70 bf ee 7d 3b d7 d9 71 95 3f
       -0.003997313389225553 0.02094211937116868
000780 02 78 c1 e1 19 46 a6 3f 11 e8 14 64 bd 27 8a 3f
       0.04350357895667402 0.012771110169172347
000790 1b bd c9 41 e7 52 6b bf 28 ca 57 7d c1 af 8e bf
       -0.003335429834173132 -0.014983665120756731
0007a0 c5 02 93 25 01 d0 93 bf 0c bd 76 49 b8 2a 96 bf
       -0.019348161619521038 -0.021647338374973166
0007b0 fc 87 14 8e 2d b4 9a 3f 37 5c 10 b3 2f c7 9d bf
       0.026077949330222325 -0.02908014803332667
0007c0 eb ae e2 8b 49 28 87 3f 06 79 48 d4 bb 9b 81 bf
       0.011307310658899413 -0.008597819724908817
0007d0 3e 25 4c 57 43 ee 65 bf de 69 79 2d a6 61 58 3f
       -0.0026770892385498393 0.0014881251171546743
0007e0 60 0c 2a 78 10 b5 b6 bf 20 95 4c 83 8d a5 92 bf
       -0.08870032247254889 -0.018209658755172886
0007f0 9e c1 d7 7a ba 0a a4 3f e1 a7 18 49 30 f8 a4 bf
       0.03914435147806049 -0.04095602886475525
